model/best.pth (torch, 840303 bytes, 140 tensors)

raw.0.layers.0.depthwise.weight f4 [14, 1, 8]
0.23349215 -0.14136073 0.1936324 0.16861777 0.31751037 -0.12641643 -0.21223469 -0.005211221
-0.2840268 -0.11705083 0.201347 0.3907623 -0.094167 0.12467208 0.16281623 -0.30153435
0.37888607 0.25290492 0.06091158 0.11850837 0.24335681 -0.30168265 -0.29250023 0.3226571
0.30110443 -0.04255286 -0.34329432 0.1794232 0.37827933 0.075759664 -0.25511518 0.050568946
0.26213065 -0.14123014 -0.033233177 0.06534459 0.063617855 0.12499722 -0.26772386 -0.2528916
-0.37973765 -0.10336531 0.105431646 0.274569 -0.37390494 -0.064260565 0.07357847 0.14871475
-0.15965396 -0.12279443 0.11183071 0.020732518 0.2801208 0.21330065 0.17807855 0.14100023
0.39295635 -0.26422188 -0.20758612 -0.015471813 0.43992028 -0.32425657 -0.29004943 -0.027210781
0.16553307 0.38579127 -0.18705024 -0.065188296 -0.32829973 0.29093233 -0.109815106 0.30661204
-0.013111257 -0.12261019 0.32971734 -0.2774047 0.2003837 -0.28278014 -0.34225905 0.30071238
0.17674263 -0.1380916 -0.09441092 -0.117326476 -0.21627949 -0.14079498 -0.02189638 0.26475984
-0.069182284 -0.14638351 0.06876502 0.20886782 0.28289652 -0.06337211 -0.19236933 0.23405235
-0.14286056 0.09669794 -0.14543201 0.22744317 0.2600864 0.27986944 0.130116 -0.3250274
-0.26616296 0.350877 0.272883 -0.25777346 0.14043382 -0.033598762 0.18179095 0.09001362
00000000: 9118 6f3e dec0 10be 9247 463e 23aa 2c3e
00000010: b890 a23e 4f73 01be 0d54 59be e4c2 aabb
00000020: f66b 91be 58b8 efbd e82d 4e3e ff11 c83e
00000030: a1da c0bd 1354 ff3d 4cb9 263e b662 9abe
00000040: 5bfd c13e c17c 813e 6c7e 793d 84b4 f23d
00000050: 8732 793e 2676 9abe 97c2 95be 5033 a53e
00000060: 5c2a 9a3e e84b 2ebd 46c4 afbe b7ba 373e
00000070: d4ad c13e e227 9b3d 759e 82be 6221 4f3d
00000080: fd35 863e a29e 10be 831f 08bd 62d3 853d
00000090: 144a 823d 8bfe ff3d 1a13 89be 027b 81be
000000a0: f96c c2be 31b1 d3bd 8cec d73d 4f94 8c3e
000000b0: 7870 bfbe 0b9b 83bd 4fb0 963d ae48 183e
000000c0: 547c 23be a57b fbbd 8007 e53d 3ed7 a93c
000000d0: fe6b 8f3e 7c6b 5a3e 395a 363e 5d62 103e
000000e0: 9331 c93e 1748 87be 7591 54be 7d7d 7dbc
000000f0: 3b3d e13e f504 a6be 5c81 94be 25e9 debc
00000100: 8081 293e 6f86 c53e 198a 3fbe 7181 85bd
00000110: e716 a8be 15f5 943e bee6 e0bd 41fc 9c3e
00000120: 99d0 56bc 0d1b fbbd b6d0 a83e fd07 8ebe
00000130: 6231 4d3e 8fc8 90be 943c afbe f9f6 993e
00000140: 05fc 343e e267 0dbe 835a c1bd dd48 f0bd
00000150: 5f78 5dbe 8f2c 10be 0a60 b3bc 9a8e 873e
00000160: 71af 8dbd 8fe5 15be add4 8c3d 72e1 553e
00000170: d0d7 903e 3dc9 81bd 77fc 44be 6bab 6f3e
00000180: 0a4a 12be 9209 c63d 21ec 14be dde6 683e
00000190: 0b2a 853e 0c4b 8f3e 213d 053e fe69 a6be
000001a0: 8346 88be 26a6 b33e 52b7 8b3e e2fa 83be
000001b0: e2cd 0f3e db9e 09bd 6827 3a3e 1059 b83d

raw.0.layers.0.depthwise.bias f4 [14]
0.035355825 -0.05504309 -0.011236453 -0.057688586 -0.09863146 0.3079802 0.16561556 0.16192284
-0.009023598 -0.041331626 0.0785636 -0.08880512 -0.1705631 -0.21596862
00000000: 45d1 103d dd74 61bd 1a19 38bc de4a 6cbd
00000010: 4aff c9bd 95af 9d3e 2097 293e 1acf 253e
00000020: b7d7 13bc 5a4b 29bd f4e5 a03d 75df b5bd
00000030: 18a8 2ebe e126 5dbe

raw.0.layers.0.pointwise.weight f4 [32, 14, 1]
0.0882565 0.14037035 0.19055703 -0.20641653 0.05137885 0.06966854 0.12248442 -0.020365983
-0.25267124 -0.20225686 -0.06516972 0.14107227 0.2165425 0.2555386 -0.20496577 0.2634545
-0.14813776 -0.061564896 0.054144062 0.06077326 0.13718413 0.15689096 0.1378906 0.1877126
-0.12411038 0.22077045 -0.07760761 -0.15269633 0.29087785 -0.024670498 -0.2413111 0.11559872
0.057522792 -0.08286091 -0.18753116 0.032479953 0.2040453 0.047597267 -0.016790505 0.14156692
-0.25975305 -0.05001559 0.15390798 -0.13577205 -0.30816084 -0.17733608 0.15439063 -0.1613907
-0.16017629 0.22685044 0.034111585 -0.06277938 0.25193992 -0.047907926 0.19281204 0.1709794
0.28269887 -0.1491618 -0.067240834 0.1266612 -0.14442198 -0.26283017 0.030978808 0.021897476
0.07435758 0.104292974 0.07358647 -0.013626895 -0.21712267 -0.0664175 0.15365414 -0.28989267
0.09815482 -0.22543408 -0.1346324 -0.12698655 -0.04978137 0.01683927 0.16687097 -0.19901568
0.009691712 -0.12430904 0.0694901 0.004307637 -0.23367886 -0.35298795 0.070762075 -0.08876925
0.22039604 0.08355527 0.059703823 -0.06903915 -0.20819701 0.09970466 0.031618584 0.16939396
0.17582384 -0.0525254 0.14008282 0.13274676 0.30515462 0.25217882 -0.116643675 0.03208794
-0.18314469 -0.21851233 0.3008701 0.1290555 -0.12944418 -0.23334311 0.18059172 -0.19021408
-0.1289282 -0.14715362 0.22207579 0.14675985 -0.04915186 0.016852707 -0.21685168 -0.20341963
-0.013467561 -0.09663788 0.1163685 -0.11860283 0.21978676 -0.17806584 0.0123436265 0.23844877
-0.15986721 -0.11704684 0.19137639 0.23206021 0.20852524 0.03940604 -0.032737236 0.08619186
-0.05281565 0.04805931 0.08811188 -0.13654123 0.05236917 0.071048595 0.04000825 -0.19766395
0.096835226 0.25958976 0.19376594 -0.068262145 -0.2756698 0.025386412 -0.23785168 0.06008233
-0.07669547 -0.1662444 -0.12141302 -0.07475593 0.04084841 0.054288168 -0.19504057 0.23937173
0.13352817 0.013361857 -0.12768684 0.2903566 0.14992675 0.28560963 0.13120894 -0.14979996
0.21934582 0.18781376 -0.05916047 -0.2751463 0.16727775 0.005460157 0.03536262 0.068679616
0.13935106 0.24449739 0.007880063 0.23515134 -0.18785894 0.06699401 0.17261508 -0.18805255
0.13545704 0.13325955 0.007206489 -0.17910366 -0.08940666 -0.28207043 0.08209783 -0.08615739
0.02381451 0.17512797 -0.15175296 -0.09955804 -0.07961952 0.012092409 0.012027222 -0.26260114
-0.09144495 0.19831248 0.15824379 -0.052331973 0.32704106 0.103766106 -0.17664291 0.15502469
0.22463062 0.03065414 0.0460495 -0.046231993 0.14341067 -0.25959656 -0.2031688 -0.276284
-0.12416193 -0.068234704 0.15656056 -0.09371091 -0.12995522 0.24897322 -0.23877011 -0.26841632
0.21048757 -0.15569697 0.1807157 0.3122566 -0.20283373 -0.06728214 0.28450593 0.16635154
0.16908464 0.0059529194 0.2283771 0.004834359 0.19237356 -0.2103577 0.051820077 -0.13767318
0.23215035 -0.15678959 0.15979527 0.20184626 0.015872007 -0.23258445 -0.21660744 -0.16890168
-0.1163983 0.080969326 0.22566271 -0.22151953 0.051073696 0.23799881 0.11611594 -0.07542495
00000000: d3bf b43d 3fbd 0f3e 6221 433e db5e 53be
00000010: a172 523d 61ae 8e3d 1dd9 fa3d 90d6 a6bc
00000020: 205e 81be 6c1c 4fbe b477 85bd 4075 103e
00000030: 51bd 5d3e f5d5 823e 8ce2 51be 82e3 863e
00000040: 6db1 17be 792b 7cbd 2ac6 5d3d 62ed 783d
00000050: ff79 0c3e 06a8 203e 3233 0d3e bb37 403e
00000060: 952d febd a611 623e bdf0 9ebd 6d5c 1cbe
00000070: f1ed 943e c919 cabc 421a 77be 06bf ec3d
00000080: 059d 6b3d fbb2 a9bd 2b08 40be b309 053d
00000090: 40f1 503e 5af5 423d 3e8c 89bc ebf6 103e
000000a0: 5afe 84be 26dd 4cbd 0e9a 1d3e d407 0bbe
000000b0: 42c7 9dbe 9797 35be 9418 1e3e 9b43 25be
000000c0: 4105 24be 7b4b 683e 97b8 0b3d 7a92 80bd
000000d0: 45fe 803e 1a3b 44bd 8570 453e 3915 2f3e
000000e0: e8bd 903e dfbd 18be 90b5 89bd 79b3 013e
000000f0: 5be3 13be ad91 86be 45c7 fd3c 5662 b33c
00000100: c948 983d 8e97 d53d 81b4 963d 5743 5fbc
00000110: 6855 5ebe e605 88bd 8357 1d3e d06c 94be
00000120: 6505 c93d 31d8 66be 13dd 09be c308 02be
00000130: 8de7 4bbd 82f2 893c 39e0 2a3e c4ca 4bbe
00000140: fdc9 1e3c bd95 febd d350 8e3d 1427 8d3b
00000150: 8349 6fbe d6ba b4be b5eb 903d a7cc b5bd
00000160: 80af 613e 071f ab3d ff8b 743d 6664 8dbd
00000170: 9931 55be f531 cc3d 7d82 013d 9c75 2d3e
00000180: 2a0b 343e e024 57bd df71 0f3e c4ee 073e
00000190: 3a3d 9c3e 951d 813e e1e2 eebd a56e 033d
000001a0: 488a 3bbe b2c1 5fbe a50b 9a3e 2027 043e
000001b0: 048d 04be 7ff1 6ebe 09ed 383e 7bc7 42be
000001c0: c105 04be 70af 16be d667 633e 3748 163e
000001d0: 7653 49bd b00e 8a3c 5e0e 5ebe 3c4d 50be
000001e0: 0ca7 5cbc 15ea c5bd 9c52 ee3d 0ae6 f2bd
000001f0: c80f 613e e456 36be ec3c 4a3c ea2b 743e
00000200: 3bb4 23be 41b6 efbd 2cf8 433e 31a1 6d3e
00000210: a487 553e 3a68 213d 7b17 06bd 5c85 b03d
00000220: 3955 58bd d7d9 443d 0074 b43d 77d1 0bbe
00000230: 0e81 563d ed81 913d b1df 233d 6b68 4abe
00000240: 8c51 c63d f3e8 843e 946a 463e 06cd 8bbd
00000250: 9824 8dbe 2af7 cf3c 648f 73be e418 763d
00000260: 8412 9dbd f93b 2abe 64a7 f8bd a319 99bd
00000270: aa50 273d 455d 5e3d b7b8 47be dd1d 753e
00000280: 9cbb 083e b1eb 5a3c 57c0 02be 9fa9 943e
00000290: 6686 193e 6d3b 923e a35b 063e 2965 19be
000002a0: 319c 603e 4052 403e 4052 72bd fadf 8cbe
000002b0: dc4a 2b3e 1eeb b23b 65d8 103d e6a7 8c3d
000002c0: 0bb2 0e3e 865d 7a3e 611b 013c 83cb 703e
000002d0: 185e 40be 2834 893d 02c2 303e d990 40be
000002e0: 40b5 0a3e 3175 083e 6924 ec3b f366 37be
000002f0: d71a b7bd 896b 90be e822 a83d 4973 b0bd
00000300: a616 c33c bf54 333e 2165 1bbe 16e5 cbbd
00000310: 8f0f a3bd 3d1f 463c d30d 453c a873 86be
00000320: 7d47 bbbd 6d12 4b3e a90a 223e 0d5a 56bd
00000330: ed71 a73e 5383 d43d e1e1 34be cbbe 1e3e
00000340: 9205 663e 641e fb3c 679e 3c3d c25d 3dbd
00000350: 3fda 123e d7e9 84be 7b0b 50be 1975 8dbe
00000360: 9c48 febd a3be 8bbd 6951 203e 81eb bfbd
00000370: fb12 05be d6f2 7e3e 2780 74be dd6d 89be
00000380: 0e8a 573e 076f 1fbe 890d 393e 19e0 9f3e
00000390: a5b3 4fbe 38cb 89bd c3aa 913e 0f58 2a3e
000003a0: 8624 2d3e b510 c33b b0db 693e 8b69 9e3b
000003b0: 93fd 443e 0268 57be 4a41 543d 33fa 0cbe
000003c0: d2b8 6d3e 738d 20be 5fa1 233e c9b0 4e3e
000003d0: 0306 823c 9e2a 6ebe 57ce 5dbe 90f4 2cbe
000003e0: 3b62 eebd 3fd3 a53d 2014 673e 04d6 62be
000003f0: a732 513d f6b5 733e 32ce ed3d 6578 9abd

raw.0.layers.0.pointwise.bias f4 [32]
0.1035682 0.18910289 -0.060990084 -0.025304357 0.24760514 -0.14801568 0.029987503 -0.04917483
0.1895475 -0.119627476 -0.2335882 -0.2647683 0.24891149 -0.02173459 -0.23217006 -0.07239848
-0.0796835 0.22600415 -0.14091147 0.11990359 0.25231746 0.093981445 0.23147736 0.20812054
0.050344422 -0.17665505 -0.00020373813 -0.14751427 -0.1870795 0.07530381 -0.020175416 -0.08971618
00000000: 901b d43d 30a4 413e bdd0 79bd 154b cfbc
00000010: 348c 7d3e 6c91 17be 5aa8 f53c 8c6b 49bd
00000020: bd18 423e 40ff f4bd bf31 6fbe b68f 87be
00000030: a7e2 7e3e bd0c b2bc fdbd 6dbe a745 94bd
00000040: 1a31 a3bd a26d 673e 194b 10be 0390 f53d
00000050: c12f 813e 5879 c03d 6708 6d3e 8d1d 553e
00000060: f435 4e3d 10e5 34be 8aa2 55b9 fb0d 17be
00000070: c591 3fbe e238 9a3d ea46 a5bc 1ebd b7bd

raw.0.layers.2.weight f4 [32]
0.97288543 0.9801079 0.97710246 1.0173544 1.0318747 1.0633707 1.0862745 0.937644
0.9581352 0.9501715 0.9373939 1.0082873 1.0561997 1.0633218 0.99705863 1.0041965
0.89752656 1.0018562 1.0256971 1.0010365 0.94871324 1.018674 1.0094024 0.9630855
0.99315786 1.0466694 0.90118295 1.1157726 1.0449591 1.1000453 1.0522949 1.0415817
00000000: 050f 793f 5ae8 7a3f 6323 7a3f ab38 823f
00000010: 7814 843f 881c 883f 0b0b 8b3f 7009 703f
00000020: 5948 753f 703e 733f 0cf9 6f3f 8f0f 813f
00000030: 8d31 873f ee1a 883f 3c3f 7f3f 8389 803f
00000040: 4dc4 653f d33c 803f 0b4a 833f f721 803f
00000050: dfde 723f e963 823f 1934 813f c58c 763f
00000060: 983f 7e3f 43f9 853f edb3 663f a3d1 8e3f
00000070: 38c1 853f 49ce 8c3f 99b1 863f 8d52 853f

raw.0.layers.2.bias f4 [32]
0.009104536 0.02847749 0.031547293 0.030115996 -0.06351193 0.0138678085 0.04284596 0.004322367
0.02858785 0.04870635 -0.005697803 0.0064641265 0.0120028565 0.032773014 0.032213654 0.04006974
0.042366017 0.0074222838 0.015417162 0.03516066 -0.012237409 0.0021067683 0.027872756 0.07398975
-2.3236613e-05 0.026755989 0.02808944 -0.043017305 0.11080813 0.042987444 -0.0323718 0.00019432226
00000000: 312b 153c a049 e93c bc37 013d d2b5 f63c
00000010: 8b12 82bd ce35 633c 3f7f 2f3d a4a2 8d3b
00000020: 1131 ea3c 4f80 473d a3b4 babb 06d1 d33b
00000030: a1a7 443c ff3c 063d 77f2 033d 2b20 243d
00000040: fd87 2d3d a136 f33b 4498 7c3c a004 103d
00000050: 6a7f 48bc b511 0a3b 6855 e43c f087 973d
00000060: 3fec c2b7 602f db3c d31b e63c ea32 30bd
00000070: 5fef e23d 9a13 303d 4b98 04bd fcc2 4b39

raw.0.layers.2.running_mean f4 [32]
0.15729643 0.2633931 0.06431419 0.0855853 0.28586122 0.03280295 0.09700549 0.10440538
0.19234537 0.092908464 0.06675237 0.05230334 0.2753826 0.065128215 0.046042375 0.07847678
0.17539085 0.30001712 0.12849085 0.20392683 0.3109624 0.1450612 0.22063756 0.28558776
0.100225374 0.050187312 0.18362156 0.042008534 0.07601342 0.21036784 0.10271072 0.068759575
00000000: 5112 213e 76db 863e 28b7 833d 5947 af3d
00000010: 675c 923e 635c 063d d0aa c63d 7dd2 d53d
00000020: 2ff6 443e cb46 be3d 77b5 883d 073c 563d
00000030: f3fe 8c3e f161 853d ee96 3c3d 6fb8 a03d
00000040: a999 333e d89b 993e 1b93 033e 32d2 503e
00000050: 7736 9f3e ec8a 143e d0ee 613e 8f38 923e
00000060: f642 cd3d 3691 4d3d 4a07 3c3e 2411 2c3d
00000070: edac 9b3d ab6a 573e ff59 d23d d2d1 8c3d

raw.0.layers.2.running_var f4 [32]
0.053373396 0.04676164 0.021693012 0.04669653 0.061042763 0.009773222 0.02306066 0.061661933
0.04880009 0.03196659 0.02724024 0.020644138 0.05177005 0.021313002 0.024473958 0.030364864
0.085683465 0.07779333 0.04726987 0.041634496 0.054422174 0.037003126 0.04494512 0.08735492
0.019876596 0.01380097 0.06877166 0.013365565 0.028038505 0.053498942 0.034925293 0.028885057
00000000: 109e 5a3d 2289 3f3d 8bb5 b13c dc44 3f3d
00000010: fa07 7a3d dd1f 203c b6e9 bc3c 3991 7c3d
00000020: 9ae2 473d 66ef 023d ec26 df3c e51d a93c
00000030: d50c 543d 9b98 ae3c 9c7d c83c bcbf f83c
00000040: d07a af3d 1c52 9f3d 0d9e 413d ef88 2a3d
00000050: c9e9 5e3d 9790 173d 6018 383d 23e7 b23d
00000060: 3ed4 a23c 771d 623c 28d8 8c3d 3efb 5a3c
00000070: 02b1 e53c b521 5b3d d30d 0f3d 5ba0 ec3c

raw.1.layers.0.depthwise.weight f4 [32, 1, 3]
0.19400638 -0.35068873 -0.39898536 0.5032278 0.10684775 -0.43379903 -0.056391805 0.5674523
0.1913868 -0.4821746 0.39096564 -0.3754722 -0.04279911 -0.12932362 0.3524137 0.5128572
-0.019967 0.11779229 -0.008029046 0.48351312 -0.21582416 -0.05585354 0.5134557 0.13680956
-0.37101093 -0.34813327 -0.32501686 -0.121674545 0.045909483 0.39718154 0.11693603 -0.51057446
-0.06535168 0.2061779 0.11923312 0.21401744 0.5591033 -0.5995268 0.037045103 0.16501893
0.2912963 -0.46494353 -0.15629636 0.48503307 -0.31980354 -0.56804264 -0.41988567 0.11230784
0.23841621 0.28745666 0.106375225 0.045103014 0.027735282 -0.46420488 0.083348 -0.14791335
-0.08774275 -0.26851648 0.06966808 -0.45481047 0.013431145 0.5259293 0.21492897 0.40580714
0.15493847 -0.018014679 0.21499081 0.5464116 -0.20746584 0.22633627 0.47721663 0.25733894
0.30446264 -0.40926874 0.4508266 0.546726 -0.34736678 0.0017279638 -0.48625132 0.5057744
0.34683737 0.30395567 -0.2337556 0.23745824 -0.29167134 0.19687611 -0.23557568 -0.06789432
0.058232613 -0.24165277 0.07447624 -0.25284716 0.040885992 -0.34087595 0.042590287 0.112988785
00000000: 9ca9 463e 798d b3be cf47 ccbe 89d3 003f
00000010: fed2 da3d e81a debe 18fb 66bd 8e44 113f
00000020: e7fa 433e 97df f6be a62c c83e e43d c0be
00000030: 1f4e 2fbd 696d 04be 926f b43e 9c4a 033f
00000040: d591 a3bc 163d f13d 428c 03bc 088f f73e
00000050: 0201 5dbe aec6 64bd d571 033f ce17 0c3e
00000060: 25f5 bdbe 863e b2be 9c68 a6be 8130 f9bd
00000070: 950b 3c3d 615b cb3e 287c ef3d 02b5 02bf
00000080: 1ad7 85bd 4d20 533e 7e30 f43d 6327 5b3e
00000090: 6521 0f3f 977a 19bf 9bbc 173d b9fa 283e
000000a0: ca24 953e 140d eebe 270c 20be 4156 f83e
000000b0: 4abd a3be 3e6b 11bf 41fb d6be a701 e63d
000000c0: 6123 743e 852d 933e 41db d93d f0bd 383d
000000d0: 1a35 e33c 43ac edbe 5bb2 aa3d 9976 17be
000000e0: 79b2 b3bd fe7a 89be 23ae 8e3d ebdc e8be
000000f0: 4e0e 5c3c 4da3 063f 5716 5c3e f4c5 cf3e
00000100: 31a8 1e3e 8593 93bc 8d26 5c3e a1e1 0b3f
00000110: ed71 54be b2c4 673e bd55 f43e eec1 833e
00000120: 87e2 9b3e ac8b d1be bed2 e63e 3cf6 0b3f
00000130: 0fda b1be d87c e23a eff5 f8be 6e7a 013f
00000140: ab94 b13e 14a0 9b3e a15d 6fbe 4128 733e
00000150: f255 95be e499 493e c03a 71be 2d0c 8bbd
00000160: 5285 6e3d d373 77be 0087 983d 2f75 81be
00000170: 1278 273d 4b87 aebe 2773 2e3d aa66 e73d

raw.1.layers.0.depthwise.bias f4 [32]
0.48666903 -0.24976866 0.109601066 -0.46137506 -0.42661923 -0.087616734 0.08684561 0.22546703
-0.103595965 0.44586325 0.6051258 0.18920547 -0.26740637 -0.3625635 -0.5163701 0.5033407
-0.38043967 0.13691397 -0.4495169 -0.24316889 0.2466738 -0.10484674 0.048682477 0.40195432
-0.11769149 0.5145798 -0.075613424 0.36119047 0.07877239 -0.07637351 0.12472533 0.27966076
00000000: af2c f93e 5bc3 7fbe 8676 e03d 5a39 ecbe
00000010: d66d dabe 6770 b3bd 1cdc b13d d4e0 663e
00000020: 1f2a d4bd 3048 e43e 86e9 1a3f 14bf 413e
00000030: 7de9 88be eca1 b9be d530 04bf f0da 003f
00000040: fdc8 c2be 2d33 0c3e 1427 e6be 4401 79be
00000050: 0e98 7c3e e3b9 d6bd 4767 473d f5cc cd3e
00000060: 3c08 f1bd 80bb 033f 36db 9abd f5ed b83e
00000070: 6b53 a13d b769 9cbd fe6f ff3d b22f 8f3e

raw.1.layers.0.pointwise.weight f4 [32, 32, 1]
0.13847068 -0.02869661 0.04408817 -0.0125938635 0.017710315 -0.041509718 0.19948623 0.20937443
-0.021195432 -0.049952105 0.11037228 -0.12279048 0.07078443 0.1962471 -0.22836173 0.15251362
-0.11888658 0.1632394 0.08936931 0.12541342 -0.13871443 0.03215965 -0.07764211 0.14222433
-0.08162358 0.081491 0.09573892 -0.006368499 -0.096388444 -0.10519942 -0.03308667 -0.04706347
0.052779827 -0.10968592 0.03393889 -0.00203931 -0.05491973 -0.12062494 0.13854173 0.0022817529
0.084562555 0.09056597 0.18159021 0.076830134 -0.032379325 0.20553862 0.043968458 -0.13732658
-0.07592084 0.105851114 -0.17495863 -0.07876142 -0.06218135 0.060060248 0.0018509693 0.17237875
-0.12734856 -0.041510455 0.09027547 -0.023337228 0.011702686 -0.18243174 -0.20622812 0.106452845
-0.06800329 0.04349173 0.22296958 0.014073362 0.11096932 0.18171385 -0.21888211 0.07935936
0.08187565 0.044390038 0.026043542 0.044825498 -0.05240649 0.046591565 0.01425407 0.14007299
-0.03980036 0.15542021 -0.0910718 0.075282104 0.05979164 0.10861345 0.113058396 -0.05148653
0.18340342 0.13336527 0.004904824 -0.024673184 0.11117336 0.041210484 -0.061173484 0.015836895
-0.081861414 0.16261508 -0.043444503 -0.11020384 0.06090864 -0.07092929 -0.23177844 0.040555824
-0.1652839 -0.10841643 0.10515532 -0.13522895 0.104016244 0.08663148 0.06448956 0.08817183
-0.054181952 -0.06845496 -0.014634929 -0.016429402 -0.121421024 0.14058577 -0.12034531 0.06437213
-0.052599277 0.12891097 0.10399885 0.06691725 -0.03855415 -0.11653328 -0.20062353 0.106248796
-0.091494754 0.03118437 -0.004702529 0.08661342 -0.08207274 -0.12455137 0.1841794 -0.015572462
-0.11986685 0.049979806 0.1578202 -0.042577513 -0.077123486 0.061047617 0.05219557 -0.0694294
0.018221509 -0.1658915 0.031927295 0.1424611 0.1289388 -0.093753636 -0.023583958 0.077265024
-0.057346683 0.1846444 0.023560613 0.030343134 -0.15946163 -0.14565836 -0.001082498 0.091063544
0.112493195 0.0943439 0.003295992 -0.109633304 -0.10740474 -0.025117513 -0.021068858 -0.15987341
0.09466946 -0.08536455 -0.16358101 0.027885325 -0.12843736 -0.029878093 -0.14757401 -0.08172852
0.100716874 -0.019312326 0.14355549 0.060941868 -0.083820805 0.11501714 -0.07186524 -0.17855562
-0.08244277 0.026485212 0.048373464 0.08093299 0.12664495 -0.0018024105 -0.11424563 -0.06007981
-0.18532729 0.1423845 -0.16691776 -0.18764557 -0.023313265 -0.15288384 0.065038465 0.019128108
0.12921625 -0.041571245 0.1050859 -0.034866456 -0.09515997 -0.19158253 -0.15519954 0.029295193
-0.04095219 -0.13629411 -0.08472735 -0.13140102 -0.07999637 -0.050077513 -0.19984256 0.0033482937
0.027539121 -0.07773119 0.13350528 0.17204231 -0.117011264 0.098291956 0.16095884 0.11960699
-0.076086916 0.07354597 0.01261769 0.035963528 0.19328524 0.09661342 -0.15579212 0.09972177
0.018849796 -0.0035131075 -0.07090475 -0.033986658 -0.032205038 -0.16251124 -0.057202328 0.09873835
-0.120523706 -0.023165785 0.11877061 0.08382136 0.13432348 -0.071970925 0.08138705 -0.10758263
0.17172787 -0.15202796 -0.09646282 0.17268625 0.09933508 0.16989549 0.028192757 0.1723904
00000000: 42cb 0d3e 2715 ebbc cc95 343d 7e56 4ebc
00000010: 3915 913c 1806 2abd 1e46 4c3e 4066 563e
00000020: 0ba2 adbc 949a 4cbd dd0a e23d 9379 fbbd
00000030: 6df7 903d 00f5 483e a8d7 69be 882c 1c3e
00000040: cf7a f3bd 3b28 273e 4207 b73d 606c 003e
00000050: 280b 0ebe d6b9 033d d402 9fbd 41a3 113e
00000060: 432a a7bd c1e4 a63d c412 c43d d7ae d0bb
00000070: 4e67 c5bd cb72 d7bd e385 07bd a0c5 40bd
00000080: a92f 583d 03a3 e0bd 8103 0b3d f2a5 05bb
00000090: 83f3 60bd 350a f7bd e2dd 0d3e 7689 153b
000000a0: 222f ad3d a77a b93d c9f2 393e 1e59 9d3d
000000b0: 2fa0 04bd b778 523e 4518 343d 579f 0cbe
000000c0: 637c 9bbd 78c8 d83d 5b28 33be ab4d a1bd
000000d0: dfb1 7ebd bc01 763d 399c f23a 0e84 303e
000000e0: a967 02be de06 2abd 58e2 b83d b72d bfbc
000000f0: 9fbc 3f3c 63cf 3abe 772d 53be f303 da3d
00000100: 4f45 8bbd 6224 323d 2352 643e f593 663c
00000110: e243 e33d 3213 3a3e a222 60be 2987 a23d
00000120: 6cae a73d 54d2 353d 4459 d53c f19a 373d
00000130: 30a8 56bd ccd6 3e3d e789 693c 4b6f 0f3e
00000140: b405 23bd 7a26 1f3e da83 babd 812d 9a3d
00000150: 14e8 743d ba70 de3d 298b e73d 8ae3 52bd
00000160: 1bce 3b3e e890 083e a5b8 a03b 6b1f cabc
00000170: dcae e33d 53cc 283d 0c91 7abd 60bc 813c
00000180: f5a6 a7bd 9184 263e ddf2 31bd 8db2 e1bd
00000190: 577b 793d 6043 91bd 5457 6dbe dd1d 263d
000001a0: 2f40 29be 6f09 debd ac5b d73d 7579 0abe
000001b0: 7806 d53d d86b b13d 1a13 843d 6f93 b43d
000001c0: e5ed 5dbd 1d32 8cbd 57c7 6fbc f496 86bc
000001d0: 96ab f8bd b7f5 0f3e 9a77 f6bd 89d5 833d
000001e0: 5772 57bd 3d01 043e 59fd d43d e90b 893d
000001f0: f5ea 1dbd 00a9 eebd 4170 4dbe f898 d93d
00000200: 9a61 bbbd 5d76 ff3c ac17 9abb 6062 b13d
00000210: c115 a8bd ca14 ffbd 8699 3c3e a423 7fbc
00000220: c07c f5bd a0b7 4c3d 9e9b 213e c265 2ebd
00000230: ebf2 9dbd 110d 7a3d 06cb 553d 0031 8ebd
00000240: 4645 953c 76df 29be 32c6 023d 53e1 113e
00000250: 8808 043e e801 c0bd 2533 c1bc 203d 9e3d
00000260: 5be4 6abd 6c13 3d3e 3002 c13c 2a92 f83c
00000270: e949 23be 7727 15be 9be2 8dba 867f ba3d
00000280: d562 e63d 6037 c13d 9201 583b 6d87 e0bd
00000290: 04f7 dbbd 3ec3 cdbc 9998 acbc dbb5 23be
000002a0: 10e2 c13d 9cd3 aebd c881 27be c46f e43c
000002b0: 1585 03be e7c2 f4bc a41d 17be 4861 a7bd
000002c0: a644 ce3d e234 9ebc 3600 133e 2e9e 793d
000002d0: 3eaa abbd 1b8e eb3d 152e 93bd 49d7 36be
000002e0: c1d7 a8bd 84f7 d83c 4123 463d 32c0 a53d
000002f0: 37af 013e dc3e ecba 9df9 e9bd 3f16 76bd
00000300: 70c6 3dbe 3ecd 113e 7dec 2abe 2926 40be
00000310: 76fb bebc 958d 1cbe e332 853d 8db2 9c3c
00000320: 4451 043e 9c46 2abd 4737 d73d 21d0 0ebd
00000330: 3be3 c2bd 362e 44be a1ec 1ebe 79fc ef3c
00000340: 7cbd 27bd af90 0bbe 8885 adbd fd8d 06be
00000350: 23d5 a3bd 141e 4dbd 87a3 4cbe 0c6f 5b3b
00000360: b999 e13c 8831 9fbd 9cb5 083e dc2b 303e
00000370: 9aa3 efbd 4b4d c93d 65d2 243e 82f4 f43d
00000380: 75d3 9bbd 459f 963d 6dba 4e3c 7e4e 133d
00000390: 91ec 453e 42dd c53d f887 1fbe ed3a cc3d
000003a0: e36a 9a3c 2a3c 66bb 8236 91bd 9835 0bbd
000003b0: 6ee9 03bd 5969 26be fd4c 6abd 5537 ca3d
000003c0: 22d5 f6bd 2cc6 bdbc 013e f33d 88aa ab3d
000003d0: 188c 093e 7e65 93bd 41ae a63d 4854 dcbd
000003e0: 6ed9 2f3e 38ad 1bbe 4d8e c5bd aad4 303e
000003f0: 3170 cb3d 15f9 2d3e 7ff4 e63c 1c87 303e

raw.1.layers.0.pointwise.bias f4 [32]
-0.039055724 0.19052608 -0.15313338 -0.019842723 -0.077434026 -0.0065524126 0.20297413 -0.17353423
0.0390537 -0.010841131 -0.10707656 -0.10998575 0.0592738 -0.032416772 -0.07628371 0.13642183
-0.0507422 0.16446735 -0.19429319 0.1325714 0.12090178 -0.055338442 -0.12889403 -0.027008587
0.15883434 0.040327948 0.15782376 0.040183578 -0.18178968 0.11551026 0.10608272 -0.0151865315
00000000: e5f8 1fbd 4519 433e ffce 1cbe 358d a2bc
00000010: bb95 9ebd 9fb5 d6bb 73d8 4f3e f5b2 31be
00000020: c6f6 1f3d 009f 31bc f54a dbbd 3540 e1bd
00000030: 16c9 723d 73c7 04bd a23a 9cbd 2ab2 0b3e
00000040: 0ed7 4fbd 216a 283e cbf4 46be ccc0 073e
00000050: 5a9b f73d 90aa 62bd ccfc 03be 1d41 ddbc
00000060: 78a5 223e eb2e 253d 8d9c 213e 8997 243d
00000070: 1327 3abe a590 ec3d e641 d93d eed0 78bc

raw.1.layers.2.weight f4 [32]
0.93288624 1.002109 1.0096061 0.9099014 1.0057944 0.9904577 0.98294777 0.9896731
0.95407325 0.9668467 1.0616584 0.91931283 0.98400027 1.0267977 1.0898691 0.9711467
0.9744711 0.9753836 1.0217277 0.9493573 1.015597 0.99978286 1.0350387 1.0098846
1.0359254 1.0328275 0.9703814 1.0735737 1.018695 0.9759299 1.0437726 1.0721128
00000000: a2d1 6e3f 1c45 803f c63a 813f 4cef 683f
00000010: dfbd 803f a38e 7d3f 77a2 7b3f 375b 7d3f
00000020: 253e 743f 4483 773f 6ce4 873f 1658 6b3f
00000030: 71e7 7b3f 1b6e 833f d580 8b3f 129d 783f
00000040: f076 793f bdb2 793f f9c7 823f 1409 733f
00000050: 15ff 813f c5f1 7f3f 267c 843f e643 813f
00000060: 3499 843f b133 843f ea6a 783f dd6a 893f
00000070: 9964 823f 8bd6 793f 579a 853f fe3a 893f

raw.1.layers.2.bias f4 [32]
0.017423375 0.023050245 -0.008790886 0.0032957685 0.05825824 -0.035580844 -0.003552182 -0.027477382
0.034030586 0.020283852 0.052729767 -0.014844758 0.06598204 0.0015061476 0.006537967 0.058072973
0.012307126 0.0117509 0.007244979 -0.019870622 0.01064641 -0.014676902 0.03589253 0.009572195
0.034127247 0.05087743 -0.015516994 0.0096090585 -0.010704622 -0.0067530097 -0.034196824 -0.036310278
00000000: 77bb 8e3c ded3 bc3c a607 10bc d2fd 573b
00000010: 31a0 6e3d 38bd 11bd bacb 68bb 3f18 e1bc
00000020: a863 0b3d 522a a63c 2bfb 573d 6e37 73bc
00000030: 9721 873d ed69 c53a 713c d63b eddd 6d3d
00000040: d4a3 493c d986 403c 4a67 ed3b b7c7 a2bc
00000050: 486e 2e3c 6477 70bc 0c04 133d b2d4 1c3c
00000060: 03c9 0b3d da64 503d fd3a 7ebc 506f 1d3c
00000070: 7062 2fbc 5a48 ddbb f811 0cbd 16ba 14bd

raw.1.layers.2.running_mean f4 [32]
0.32695627 0.5109215 0.07144907 0.09966359 0.17970887 0.018961515 0.5042492 -0.008648991
0.29904327 0.1944147 0.12306599 0.062988184 0.020084444 0.037611146 0.07163495 0.31743282
0.05041406 0.2179065 0.017298907 0.3559305 0.10098498 0.1472774 0.055128254 -0.07386024
0.20911159 0.2817189 0.4451753 0.07324395 -0.054524295 0.17860386 0.19101028 0.02167012
00000000: d066 a73e c0cb 023f e453 923d 6d1c cc3d
00000010: 9a05 383e 2e55 9b3c 7a16 013f 7fb4 0dbc
00000020: 331c 993e a614 473e 060a fc3d f3ff 803d
00000030: 2288 a43c 250e 1a3d 58b5 923d 8e86 a23e
00000040: f97e 4e3d e222 5f3e 70b6 8d3c 863c b63e
00000050: 37d1 ce3d e3cf 163e 2ace 613d 0a44 97bd
00000060: 5921 563e 763d 903e 04ee e33e ed00 963d
00000070: de54 5fbd eee3 363e 3398 433e 8985 b13c

raw.1.layers.2.running_var f4 [32]
0.09276855 0.10354156 0.051563986 0.05752865 0.076641835 0.03193947 0.11787026 0.023207223
0.13100176 0.09627253 0.09663432 0.06726274 0.034582783 0.032765083 0.06468101 0.09175788
0.041487485 0.06914211 0.039823744 0.10831007 0.10759618 0.04542852 0.08570601 0.012885383
0.11977612 0.10826523 0.14217676 0.07395092 0.021844767 0.06374428 0.06521194 0.0258014
00000000: 70fd bd3d 990d d43d c234 533d 29a3 6b3d
00000010: 65f6 9c3d f6d2 023d f665 f13d 131d be3c
00000020: 5325 063e 882a c53d 37e8 c53d 0cc1 893d
00000030: ada6 0d3d ae34 063d 7a77 843d 8eeb bb3d
00000040: c8ee 293d 619a 8d3d 391e 233d acd1 dd3d
00000050: 635b dc3d 4113 3a3d a286 af3d 371d 533c
00000060: 2f4d f53d 29ba dd3d c996 113e 9473 973d
00000070: ccf3 b23c 5c8c 823d d68d 853d 755d d33c

raw.2.layers.0.depthwise.weight f4 [32, 1, 8]
-0.115443856 -0.32091302 0.32244498 -0.20820011 -0.14176686 0.2911308 0.32928562 -0.09864644
-0.18750049 0.18798785 0.31775564 -0.27853748 0.01990663 0.0102921575 -0.23475684 0.035070624
0.19485617 0.25815764 -0.17970364 -0.04776993 0.09436383 0.23064464 0.35934874 0.11020296
-0.07458715 -0.21635586 0.2532054 0.23315755 -0.31162566 0.0055756797 0.1437526 -0.17301722
0.0727154 -0.1645432 -0.25312373 0.22615418 -0.31648013 -0.32988504 0.13708012 -0.3149582
-0.21618779 -0.350708 0.2816485 -0.1605708 -0.16251072 0.17126414 0.2647456 0.28367054
-0.0664834 -0.036817547 0.22906783 -0.05984618 -0.04708175 0.18671587 0.26056397 0.22525421
0.006688845 -0.37140828 0.07052831 0.23216207 -0.008153108 0.2809082 -0.2831284 -0.2083569
-0.12176469 -0.056043666 0.26509786 -0.040101692 -0.08393929 -0.024319999 0.27646512 0.046490658
-0.30062646 0.25207838 -0.21835572 0.20725165 -0.26776335 -0.21886058 0.22781406 -0.09622647
-0.11582127 0.14539053 0.06630835 0.08329987 -0.16742244 0.29064736 0.3050554 0.21937452
0.08845697 0.1952524 0.33617422 0.18738708 -0.2728159 0.011781854 -0.3000946 0.19170047
0.054284588 -0.21580361 0.16125211 0.30144706 -0.14403312 -0.19155397 -0.17970376 0.31041864
0.037268344 -0.3442102 0.12304556 -0.11847286 0.3613486 -0.30740392 -0.23329782 0.11803985
0.0013931071 0.067029744 0.23002815 -0.0698552 0.4002951 0.29828972 -0.010576016 0.30815846
-0.20939372 -0.36437687 -0.006112648 0.14313634 -0.22229935 -0.123460084 0.02801216 0.2285211
-0.33998713 -0.22930826 0.24783479 0.16579126 -0.07524545 0.2783144 0.12280209 0.25592658
-0.084725276 -0.21512131 0.11642846 0.08739908 -0.3125492 -0.10476761 -0.34564552 0.104077905
-0.09828279 0.28322396 0.09901606 0.0134418495 -0.07502122 0.23399176 0.17016348 0.15855725
0.02300643 0.14551917 0.22475395 -0.26777354 -0.010547334 0.26434764 0.24413358 -0.22084686
0.32550955 -0.19721983 -0.17919147 0.35018522 -0.069267675 0.15244424 -0.14195284 -0.26488966
-0.117178924 -0.11264207 -0.24123465 -0.1314501 0.048400443 0.0061015454 0.25413808 -0.11066632
0.33566296 -0.02579652 0.17949398 -0.22274423 -0.3379476 -0.1727995 -0.05693977 -0.03614079
0.118707635 0.29182172 0.077861 -0.1443812 -0.27667984 0.056562297 -0.05734862 -0.13658595
0.2069253 -0.21763134 0.26524675 0.1515317 -0.0062364815 -0.12894551 0.1516532 -0.24941684
-0.33688566 0.13380146 0.022368593 0.2100819 -0.00079192704 0.0743446 -0.045390896 0.26867425
-0.22455852 -0.15328614 0.108127594 -0.035816997 -0.03635058 0.12167564 0.025672443 0.24569844
-0.2578608 -0.17502664 0.28946713 -0.13255364 0.3924811 -0.33494937 0.26568505 -0.19422224
0.3680456 0.075380675 0.12257247 -0.19524783 -0.25877294 0.31246972 -0.006585001 -0.07921099
-0.2320193 -0.029300109 0.24637021 -0.18128742 -0.19791992 -0.089563675 -0.30096802 -0.09509893
0.32796028 0.34074047 0.2532107 -0.016004572 0.26086774 -0.23035723 0.21678467 0.10754323
-0.32021832 -0.33799627 -0.16406167 -0.1758402 -0.15651229 -0.009969734 -0.2071775 0.01879078
00000000: d46d ecbd b64e a4be 8217 a53e 6932 55be
00000010: 552b 11be 190f 953e 2098 a83e 2507 cabd
00000020: 2100 40be e37f 403e deb0 a23e 779c 8ebe
00000030: 3b13 a33c 70a0 283c 1964 70be 37a6 0f3d
00000040: 6088 473e 3d2d 843e 3b04 38be 67aa 43bd
00000050: d341 c13d 1c2e 6c3e 8ffc b73e 17b2 e13d
00000060: 26c1 98bd 648c 5dbe 23a4 813e dac0 6e3e
00000070: 668d 9fbe 31b4 b63b e233 133e 6d2b 31be
00000080: d0eb 943d 037e 28be 6f99 81be f694 673e
00000090: af09 a2be b1e6 a8be bb5e 0c3e 3442 a1be
000000a0: 5560 5dbe 0090 b3be 3b34 903e ac6c 24be
000000b0: 3669 26be de5f 2f3e bc8c 873e 443d 913e
000000c0: 7328 88bd ffcd 16bd c290 6a3e 4521 75bd
000000d0: cbd8 40bd 7232 3f3e a468 853e 0aa9 663e
000000e0: 192e db3b 3a29 bebe 2671 903d e5bb 6d3e
000000f0: 9d94 05bc 33d3 8f3e 35f6 90be 835b 55be
00000100: c45f f9bd 0b8e 65bd e8ba 873e ac41 24bd
00000110: 5de8 abbd bc3a c7bc d68c 8d3e fd6c 3e3d
00000120: b6eb 99be 6b10 813e a498 5fbe c739 543e
00000130: 4718 89be fd1c 60be 1748 693e 6212 c5bd
00000140: b433 edbd 41e1 143e accc 873d 1f99 aa3d
00000150: ca70 2bbe bbcf 943e 3930 9c3e b7a3 603e
00000160: ee28 b53d 3ff0 473e 071f ac3e 66e2 3f3e
00000170: 87ae 8bbe ad08 413c 00a6 99be 214d 443e
00000180: 8459 5e3d 9ffb 5cbe 461f 253e 4557 9a3e
00000190: 6b7d 13be b926 44be 4304 38be 31ef 9e3e
000001a0: b1a6 183d 523c b0be 50ff fb3d e6a1 f2bd
000001b0: af02 b93e 0c64 9dbe a0e5 6ebe e0be f13d
000001c0: eb98 b63a e446 893d 808c 6b3e 3e10 8fbd
000001d0: 7bf3 cc3e 6eb9 983e 0747 2dbc f2c6 9d3e
000001e0: 4f6b 56be 9b8f babe 9c4c c8bb 5592 123e
000001f0: 71a2 63be a4d8 fcbd c279 e53c 6f01 6a3e
00000200: cb12 aebe c9cf 6abe 67c8 7d3e 2fc5 293e
00000210: 491a 9abd 3a7f 8e3e aa7f fb3d cf08 833e
00000220: 7284 adbd c348 5cbe 0b72 ee3d 4afe b23d
00000230: 7306 a0be 6790 d6bd 73f8 b0be cc26 d53d
00000240: 7d48 c9bd bb02 913e efc8 ca3d 343b 5c3c
00000250: baa4 99bd 899b 6f3e 563f 2e3e d55c 223e
00000260: fb77 bc3c fa02 153e e625 663e 9d19 89be
00000270: bace 2cbc 9358 873e 27fe 793e ae25 62be
00000280: 30a9 a63e fff3 49be f87d 37be 7a4b b33e
00000290: 36dc 8dbd 581a 1c3e 165c 11be 9e9f 87be
000002a0: 81fb efbd e3b0 e6bd 3706 77be db9a 06be
000002b0: 8b3f 463d 79ef c73b 631e 823e 06a5 e2bd
000002c0: 04dc ab3e 3953 d3bc 45cd 373e 1017 64be
000002d0: 7807 adbe 5af2 30be ad39 69bd 5d08 14bd
000002e0: fd1c f33d a869 953e 9775 9f3d aad8 13be
000002f0: fba8 8dbe dead 673d 63e6 6abd 30dd 0bbe
00000300: 3ae4 533e c0da 5ebe 6cce 873e 202b 1b3e
00000310: 665b ccbb 4b0a 04be fa4a 1b3e 2167 7fbe
00000320: 477c acbe 4003 093e 573e b73c b61f 573e
00000330: 5399 4fba fb41 983d ceeb 39bd ac8f 893e
00000340: abf2 65be 0bf7 1cbe 0072 dd3d d8b4 12bd
00000350: 59e4 14bd 1431 f93d 044f d23c 5f98 7b3e
00000360: 5506 84be 2f3a 33be 0935 943e 24bc 07be
00000370: 48f3 c83e 7c7e abbe df07 883e 32e2 46be
00000380: 7970 bc3e 2f61 9a3d 4607 fb3d 0cef 47be
00000390: e37d 84be 08fc 9f3e fec6 d7bb 5f39 a2bd
000003a0: 7896 6dbe c806 f0bc 7948 7c3e 69a3 39be
000003b0: 85ab 4abe 296d b7bd 7b18 9abe 3ac3 c2bd
000003c0: 69ea a73e 8975 ae3e d5a4 813e 051c 83bc
000003d0: 7590 853e c4e2 6bbe cdfc 5d3e a03f dc3d
000003e0: a8f3 a3be d90d adbe c8ff 27be 740f 34be
000003f0: c244 20be 1858 23bc 5726 54be 1fef 993c

raw.2.layers.0.depthwise.bias f4 [32]
0.2214966 -0.29579356 -0.019438704 0.26243708 0.19548881 -0.22904357 0.34593207 -0.13314982
-0.22110647 -0.04861821 0.05151035 -0.11497155 0.09150439 0.18864033 -0.36508274 -0.36455834
0.01927593 0.063873835 -0.2911321 0.18340787 0.3085615 -0.006509475 0.18880966 -0.013932045
0.15475872 0.0067714825 0.28294355 0.10004804 -0.071665406 0.18044193 -0.23408443 0.29635507
00000000: 01d0 623e 4172 97be eb3d 9fbc 275e 863e
00000010: 382e 483e 668a 6abe 021e b13e 6d58 08be
00000020: bc69 62be e323 47bd 84fc 523d 3476 ebbd
00000030: a766 bb3d ee2a 413e 20ec babe 64a7 babe
00000040: 8ee8 9d3c 49d0 823d 440f 95be 46cf 3b3e
00000050: c6fb 9d3e 6f4d d5bb 5257 413e 3b43 64bc
00000060: 1279 1e3e 50e3 dd3b fadd 903e fde5 cc3d
00000070: 50c5 92bd c5c5 383e d4b3 6fbe dabb 973e

raw.2.layers.0.pointwise.weight f4 [64, 32, 1]
0.07220332 0.078793384 -0.05321364 0.09908903 0.17661934 0.07292369 -0.10103887 0.05309836
-0.17646971 0.13106947 -0.063138366 -0.15287095 -0.11036264 -0.09652267 -0.07966887 -0.17516178
-0.07671433 0.088370875 -0.08360049 0.050917182 0.11067074 0.13764313 0.18477917 0.102227524
-0.11938243 -0.074288554 0.015887177 0.13905224 -0.031862415 0.056763023 0.16484481 -0.18769117
0.058822118 0.07421342 0.04387676 0.039116252 -0.11615926 0.11917515 -0.123825036 0.14991795
-0.024243223 -0.11993891 0.05582583 -0.10672239 0.10462065 0.03896815 0.021478157 0.0028989299
0.11516238 0.1714199 0.27751762 0.001367675 0.09368011 -0.009785434 -0.09048298 -0.10856544
-0.07838646 -0.107224226 -0.14833589 0.06892874 0.012462835 0.025642116 0.16550778 0.05913248
-0.12153412 0.02221614 0.13790679 0.09205227 0.11055601 -0.01485228 -0.0057640304 -0.09166754
-0.05123539 0.21563059 -0.012812246 -0.15390982 -0.04682469 0.05584134 -0.0104345335 -0.062192667
-0.02703859 -0.14807208 0.113329135 -0.028155528 0.11366367 0.005098311 -0.13148169 -0.06936359
-0.049942955 -0.17087854 0.1419233 -0.19723266 -0.0032659145 0.08572437 0.08559366 0.047309395
0.074567266 0.033298146 -0.0021375197 -0.0841224 -0.017425695 0.11650599 -0.17473628 -0.07917862
-0.06959372 0.08509008 0.105988525 -0.08407614 0.035386715 0.009255745 -0.13426566 0.13499357
-0.06926574 -0.18366827 0.13861164 0.1590664 -0.06704314 0.0912711 0.11417142 0.072744735
0.090274364 0.006649507 0.14974847 -0.0017915027 -0.16269271 -0.064762056 0.07650568 -0.101549804
-0.0057323184 0.04878274 0.15516725 -0.071260124 0.018189915 0.1448244 0.16444479 0.0029210795
-0.10132731 -0.08851868 -0.116237886 0.05393369 -0.21190158 -0.05936427 0.18939741 0.0056503266
0.091949515 0.12731074 0.028365726 0.12724696 0.013858614 -0.036801595 -0.027613226 -0.14518829
0.09081194 -0.11380684 0.024122873 0.04268309 -0.17988805 -0.16148931 0.15609914 -0.10395823
0.019034458 0.0868589 0.03182218 -0.020192996 -0.129374 0.1733903 -0.057171777 0.09017735
0.09724275 0.06878823 -0.09411365 -0.08658821 0.01319741 -0.05101657 -0.01845615 0.102501996
-0.06755531 0.1439925 -0.08556604 0.11853114 0.09693858 -0.025070757 -0.15868703 0.15335846
0.1405686 -0.0028287861 -0.23689707 0.12364502 -0.07973055 0.05289165 0.14499712 0.07435302
-0.18495524 0.018668065 0.028797833 0.08034635 0.08823925 0.15977964 0.17784975 -0.012124094
0.05483948 0.11955875 -0.18334648 -0.17539966 0.019301182 0.05176738 0.22181223 0.06750308
-0.036963593 -0.12595786 0.082987264 -0.10393514 -0.14469716 -0.055411898 0.07256459 -0.07577104
-0.015778163 0.18040715 0.095676966 0.022527104 -0.0879635 -0.1916617 -0.029335236 -0.0037995311
0.15606423 0.13973391 -0.032824174 0.013604752 -0.0469684 0.1143942 0.13197441 0.10942617
-0.100123204 -0.11840555 0.16145845 0.14558403 0.00696005 0.12004276 0.117654204 -0.07324608
-0.038687296 0.17429052 -0.21798791 -0.102762386 0.05153408 -0.11126668 0.22393446 0.050626237
-0.04914398 -0.053363867 -0.020969044 -0.1778461 -0.0890482 0.0063869376 -0.009208852 -0.0024614881
00000000: 56df 933d 6d5e a13d 8cf6 59bd 30ef ca3d
00000010: b3db 343e 0459 953d 78ed cebd aa7d 593d
00000020: 7ab4 34be 1337 063e b04e 81bd 348a 1cbe
00000030: cf05 e2bd adad c5bd 6f29 a3bd 9c5d 33be
00000040: 671c 9dbd cafb b43d bc36 abbd 898e 503d
00000050: 57a7 e23d 52f2 0c3e c036 3d3e aa5c d13d
00000060: c77e f4bd 9924 98bd d325 823c b663 0e3e
00000070: 2a82 02bd 5880 683d 14cd 283e 1d32 40be
00000080: 76ef 703d 35fd 973d 1eb8 333d 5d38 203d
00000090: e8e4 edbd 1a12 f43d fb97 fdbd 1784 193e
000000a0: b999 c6bc 88a2 f5bd a0a9 643d 4591 dabd
000000b0: 5a43 d63d 119d 1f3d f6f2 af3c f9fb 3d3b
000000c0: 41da eb3d b388 2f3e ca16 8e3e 8f43 b33a
000000d0: 5cdb bf3d 1653 20bc 244f b9bd 8f57 debd
000000e0: 1589 a0bd 6098 dbbd 5de5 17be 832a 8d3d
000000f0: eb30 4c3c 6a0f d23c df7a 293e e634 723d
00000100: e1e6 f8bd 9ffe b53c 7037 0d3e e785 bc3d
00000110: 306b e23d fa56 73bc 31e0 bcbb 31bc bbbd
00000120: 33dc 51bd 44ce 5c3e 74ea 51bc 899a 1dbe
00000130: 3fcb 3fbd e4b9 643d 9bf5 2abc bdbd 7ebd
00000140: 0880 ddbc 35a0 17be 1b19 e83d 6ca6 e6bc
00000150: 80c8 e83d bc0f a73b 23a3 06be 7f0e 8ebd
00000160: fc90 4cbd c9fa 2ebe 5754 113e 5cf7 49be
00000170: f408 56bb 4290 af3d bb4b af3d 7fc7 413d
00000180: b9b6 983d a363 083d a115 0cbb 5d48 acbd
00000190: 55c0 8ebc b19a ee3d 11ee 32be 6628 a2bd
000001a0: 2787 8ebd b543 ae3d 8310 d93d 1c30 acbd
000001b0: a9f1 103d 69a5 173c f07c 09be c13b 0a3e
000001c0: 32db 8dbd 8913 3cbe 36f0 0d3e 4de2 223e
000001d0: ea4d 89bd 58ec ba3d b5d2 e93d 31fb 943d
000001e0: c4e1 b83d 1ce4 d93b aa57 193e dbd0 eaba
000001f0: eb98 26be f8a1 84bd 03af 9c3d 58f9 cfbd
00000200: 2cd6 bbbb 69d0 473d 2ae4 1e3e d4f0 91bd
00000210: 0403 953c d94c 143e 3764 283e 956f 3f3b
00000220: b184 cfbd 4849 b5bd 210e eebd 93e9 5c3d
00000230: bafc 58be f327 73bd 65f1 413e 6026 b93b
00000240: 0750 bc3d bf5d 023e 3d5f e83c 074d 023e
00000250: 3d0f 633c 45bd 16bd 2235 e2bc 3dac 14be
00000260: 9cfb b93d 8f13 e9bd 559d c53c 77d4 2e3d
00000270: 9334 38be 745d 25be 74d8 1f3e 0de8 d4bd
00000280: 27ee 9b3c 14e3 b13d f957 023d c86b a5bc
00000290: 9e7a 04be 3a8d 313e f42c 6abd e7ae b83d
000002a0: 3527 c73d d8e0 8c3d a8be c0bd 2955 b1bd
000002b0: f339 583c c0f6 50bd 5a31 97bc 91ec d13d
000002c0: 705a 8abd c572 133e 3f3d afbd 74c0 f23d
000002d0: bc87 c63d 3061 cdbc da7e 22be 000a 1d3e
000002e0: 37f1 0f3e 2863 39bb 2595 72be 9a39 fd3d
000002f0: c549 a3bd eaa4 583d 207a 143e 6546 983d
00000300: e864 3dbe c5ed 983c 6fe9 eb3c a18c a43d
00000310: c8b6 b43d 469d 233e 3f1e 363e 23a4 46bc
00000320: 5d9f 603d 38db f43d 2ebf 3bbe f89b 33be
00000330: 831d 9e3c 080a 543d bf22 633e 0e3f 8a3d
00000340: 2367 17bd 19fb 00be 3af5 a93d f2db d4bd
00000350: 7e2b 14be 96f7 62bd be9c 943d d92d 9bbd
00000360: 3541 81bc a7bc 383e 49f2 c33d c38a b83c
00000370: 3526 b4bd f742 44be 7350 f0bc 8e01 79bb
00000380: 4dcf 1f3e 6816 0f3e a472 06bd 77e6 5e3c
00000390: f061 40bd 8247 ea3d 4d24 073e d41a e03d
000003a0: 650d cdbd 9c7e f2bd 5d55 253e fb13 153e
000003b0: 2211 e43b fbd8 f53d b0f4 f03d 0a02 96bd
000003c0: 9276 1ebd 3779 323e 3938 5fbe 1675 d2bd
000003d0: 6615 533d c9df e3bd 134f 653e 755d 4f3d
000003e0: 334b 49bd 1294 5abd 46c7 abbc 4a1d 36be
000003f0: e75e b6bd 8449 d13b bae0 16bc eb50 21bb

raw.2.layers.0.pointwise.bias f4 [64]
-0.12980457 -0.072889686 -0.171185 0.0017745065 -0.20625521 0.05354088 0.11240545 -0.07069322
0.163243 -0.124958724 -0.101306245 -0.017124359 -0.048960123 -0.10817572 0.20704412 0.17148918
-0.031178474 0.10148217 0.105722435 0.10380934 -0.048899807 0.057478562 -0.0076872096 0.1288129
0.08863825 -0.018520668 0.14384189 -0.04684793 -0.0752169 -0.07823512 0.06733204 0.08927631
-0.05676077 0.15179068 0.121719405 0.04973982 0.13047744 0.15015934 -0.16672662 0.052126948
0.025374928 -0.048772242 0.036284152 0.039232668 0.018269533 -0.07823383 0.15244979 0.03776371
-0.0712518 -0.051734224 0.023525866 -0.13442941 0.047076654 0.12429079 -0.081829555 -0.03941543
-0.13600753 0.18940234 -0.1841334 0.04504886 0.068548396 -0.01596155 -0.022881836 0.063734636
00000000: 7deb 04be 3047 95bd 1f4b 2fbe 8f96 e83a
00000010: 9134 53be af4d 5b3d d434 e63d 9bc7 90bd
00000020: 2c29 273e 5cea ffbd a679 cfbd 6248 8cbc
00000030: 698a 48bd 3b8b ddbd 6003 543e dc9a 2f3e
00000040: 006a ffbc e2d5 cf3d 0185 d83d fe99 d43d
00000050: 2a4b 48bd a46e 6b3d fde4 fbbb 87e7 033e
00000060: f987 b53d a8b8 97bc 4a4b 133e 9de3 3fbd
00000070: 510b 9abd bc39 a0bd 61e5 893d 7fd6 b63d
00000080: fb7d 68bd 046f 1b3e 0648 f93d fbbb 4b3d
00000090: e19b 053e 5fc3 193e 62ba 2abe 1183 553d
000000a0: 15df cf3c 67c5 47bd b19e 143d 6fb2 203d
000000b0: fda9 953c 0f39 a0bd cc1b 1c3e 1fae 1a3d
000000c0: 77ec 91bd 44e7 53bd 51b9 c03c dda7 09be
000000d0: 73d3 403d 2b8c fe3d 4196 a7bd 1372 21bd
000000e0: 8f45 0bbe b0f2 413e 778d 3cbe 2785 383d
000000f0: 1a63 8c3d ccc1 82bc b072 bbbc 4e87 823d

raw.2.layers.2.weight f4 [64]
0.96025187 1.0302639 1.013681 0.9775964 0.99288607 1.095666 0.98879033 1.0959148
0.9859995 1.0372617 1.0156176 0.9460559 1.0417213 1.0025129 1.0100359 0.9828661
1.022957 1.0016464 1.0463961 0.9883344 1.0155183 0.9879555 0.97289884 0.9678845
0.98515445 1.014943 1.0391517 0.960243 1.072825 0.93854254 0.9776084 0.9615807
0.9587846 1.0147829 0.97390676 1.015054 0.94957054 0.9550014 1.0235779 1.020932
0.9824983 1.0470318 1.0333617 1.0508996 1.0742136 1.0264219 1.0485829 1.0317813
0.97722715 0.9695168 1.0225652 1.0056682 1.0075098 1.0062515 0.99288815 0.980528
1.0034693 1.0040286 1.0368354 1.0235821 1.062583 0.9944068 0.9419564 0.97794235
00000000: 11d3 753f b0df 833f 4dc0 813f c243 7a3f
00000010: c82d 7e3f c93e 8c3f 5d21 7d3f f046 8c3f
00000020: 776a 7c3f fec4 843f c2ff 813f b830 723f
00000030: 2057 853f 5852 803f db48 813f 1d9d 7b3f
00000040: 41f0 823f f335 803f 4ff0 853f 7c03 7d3f
00000050: 81fc 813f a7ea 7c3f e60f 793f 47c7 773f
00000060: 1533 7c3f a7e9 813f ec02 853f 7cd2 753f
00000070: 5452 893f 5344 703f 8b44 7a3f 272a 763f
00000080: e872 753f 68e4 813f f451 793f 4aed 813f
00000090: 0e17 733f f97a 743f 9a04 833f e6ad 823f
000000a0: 0285 7b3f 2305 863f 3245 843f e183 863f
000000b0: d57f 893f cb61 833f f737 863f 6911 843f
000000c0: 8f2b 7a3f 4132 783f 6be3 823f bcb9 803f
000000d0: 15f6 803f d9cc 803f eb2d 7e3f e203 7b3f
000000e0: af71 803f 0284 803f 06b7 843f bd04 833f
000000f0: b802 883f 7291 7e3f 0e24 713f 6e5a 7a3f

raw.2.layers.2.bias f4 [64]
-0.037288126 -0.038419735 0.027045114 0.016240457 0.03692706 0.0034455082 0.034015607 0.0011964544
0.011222094 -0.02901209 0.02949169 0.026511265 -0.0018672263 -0.0045168856 -0.0017668321 0.032916665
0.024511522 0.0119555555 0.015917797 0.028679335 0.00794017 0.04262815 0.0025440415 0.011571653
-0.047998987 -0.01654909 0.024501223 0.021682877 -0.007272691 0.022124052 0.027425209 -0.009385137
0.023188423 0.046273597 -0.026206387 0.023075882 -0.03244142 0.012862252 0.02090481 -0.027160691
0.02084404 0.029477019 -0.021749828 -0.0112486 0.017664121 -0.00632483 -0.030890081 0.00960382
0.03331611 -0.0011801461 -0.029861031 -0.014609063 0.01740105 -0.016667126 0.060700342 0.0015876213
0.013401918 0.013972054 0.034634262 -0.044958886 0.0018702957 0.052615285 0.019584944 0.022961615
00000000: 6fbb 18bd 035e 1dbd b78d dd3c b50a 853c
00000010: d440 173d 09ce 613b f353 0b3d 59d2 9c3a
00000020: e0dc 373c c3aa edbc 8f98 f13c 272e d93c
00000030: b8bd f4ba 6202 94bb 0c95 e7ba a0d3 063d
00000040: 63cc c83c 3ce1 433c 0a66 823c edf0 ea3c
00000050: 7d17 023c db9a 2e3d efb9 263b 0897 3d3c
00000060: 969a 44bd f591 87bc cab6 c83c 4aa0 b13c
00000070: c14f eebb 803d b53c d5aa e03c 1ec4 19bc
00000080: a6f5 bd3c 6289 3d3d c7ae d6bc a209 bd3c
00000090: 4be1 04bd 32bc 523c 9040 ab3c 1980 debc
000000a0: 1fc1 aa3c ca79 f13c b22c b2bc 0c4c 38bc
000000b0: 59b4 903c 8540 cfbb 320d fdbc 5759 1d3c
000000c0: 7976 083d 22af 9aba 1f9f f4bc da5a 6fbc
000000d0: a68c 8e3c 7f89 88bc eca0 783d bb17 d03a
000000e0: b893 5b3c 0beb 643c a8dc 0d3d cf26 38bd
000000f0: b624 f53a 2083 573d 9b70 a03c ff19 bc3c

raw.2.layers.2.running_mean f4 [64]
0.12140232 0.01553021 0.07838259 0.07055255 -0.011092333 0.08130535 0.08819206 0.1717728
0.33696932 -0.008441169 0.09181022 0.0632107 0.07531985 0.012624577 0.45564747 0.41036698
0.17513323 0.22336757 0.11871731 0.13482502 0.08391072 0.38632938 0.15289609 0.1437413
0.2143566 0.063151084 0.42298663 0.16653953 0.29095224 0.17505361 0.07322688 0.2007192
0.083154134 0.16690104 0.42326805 0.064784296 0.3637832 0.2515898 -0.025905391 0.16077477
0.2784702 0.10788353 0.3379359 0.3117155 0.2929854 0.14862224 0.2397417 0.18622974
0.061172273 0.03832303 0.20865992 0.12730405 0.11602009 0.34792754 0.090853855 0.078831434
0.13111682 0.24910155 0.015149525 0.16685827 0.23156184 0.14027545 0.21000041 0.09714378
00000000: c8a1 f83d 6c72 7e3c 0d87 a03d db7d 903d
00000010: 9ebc 35bc 6b83 a63d 0a9e b43d 35e5 2f3e
00000020: 3e87 ac3e d44c 0abc ff06 bc3d 9d74 813d
00000030: 4b41 9a3d 50d7 4e3c a04a e93e 9f1b d23e
00000040: 2056 333e 78ba 643e 1022 f33d 920f 0a3e
00000050: 62d9 ab3d f7cc c53e cb90 1c3e eb30 133e
00000060: 4c80 5b3e 5b55 813d b491 d83e 5789 2a3e
00000070: b1f7 943e 4141 333e f9f7 953d 5589 4d3e
00000080: b74c aa3d 1be8 2a3e 97b6 d83e a1ad 843d
00000090: cb41 ba3e 61d0 803e 8b37 d4bc 24a2 243e
000000a0: a593 8e3e 0af2 dc3d ef05 ad3e 2d99 9f3e
000000b0: 2f02 963e 6e30 183e d97e 753e 02b3 3e3e
000000c0: c78f 7a3d 9cf8 1c3d f2aa 553e fe5b 023e
000000d0: f19b ed3d 8f23 b23e 9611 ba3d 6072 a13d
000000e0: 7d43 063e 7a14 7f3e b735 783c e5dc 2a3e
000000f0: 8c1e 6d3e 5ea4 0f3e 590a 573e 51f3 c63d

raw.2.layers.2.running_var f4 [64]
0.070364825 0.04979072 0.07590966 0.05182146 0.052217506 0.06917121 0.058419243 0.10470261
0.100172155 0.031279143 0.08247412 0.056919996 0.0789391 0.06268309 0.103645466 0.13346584
0.090528406 0.07661001 0.047061227 0.06501883 0.07560895 0.17506163 0.09651742 0.0880856
0.103183694 0.04969185 0.14732833 0.072778784 0.0923662 0.12262041 0.06858681 0.072110645
0.06438359 0.07443158 0.12191335 0.09285208 0.10095666 0.13352954 0.02200253 0.09890106
0.09136766 0.09119573 0.11167623 0.11790038 0.095421076 0.07335143 0.090294346 0.11116562
0.05446642 0.05299664 0.1202809 0.06511466 0.106786944 0.1480525 0.045896914 0.05486824
0.13239844 0.102668926 0.07228565 0.08721066 0.07733178 0.08692818 0.09284447 0.11629069
00000000: 6f1b 903d 5bf1 4b3d 8676 9b3d bd42 543d
00000010: 06e2 553d a3a9 8d3d 0449 6f3d 526e d63d
00000020: 0f27 cd3d 8f1e 003d 31e8 a83d f124 693d
00000030: d3aa a13d fe5f 803d 1344 d43d 45ab 083e
00000040: f566 b93d b5e5 9c3d 46c3 403d 9828 853d
00000050: ddd8 9a3d 5b43 333e edaa c53d 3966 b43d
00000060: f951 d33d ae89 4b3d 3ddd 163e 0b0d 953d
00000070: 7e2a bd3d 6920 fb3d 3e77 8c3d bfae 933d
00000080: 8bdb 833d 966f 983d b5ad f93d 3b29 be3d
00000090: 5ec2 ce3d f8bb 083e a63e b43c a48c ca3d
000000a0: f81e bb3d d4c4 ba3d 82b6 e43d c175 f13d
000000b0: 206c c33d 4639 963d 3eec b83d cdaa e33d
000000c0: 2e18 5f3d 0113 593d d555 f63d d65a 853d
000000d0: 1db3 da3d 139b 173e 67fe 3b3d 85bd 603d
000000e0: 7593 073e 1644 d23d 800a 943d 819b b23d
000000f0: 2060 9e3d 6707 b23d 3e25 be3d d029 ee3d
